=======================Qwen================================
QWenLMHeadModel(
  (transformer): QWenModel(
    (wte): Embedding(151936, 4096)
    (drop): Dropout(p=0.0, inplace=False)
    (rotary_emb): RotaryEmbedding()
    (h): ModuleList(
      (0-31): 32 x QWenBlock(
        (ln_1): RMSNorm()
        (attn): QWenAttention(
          (c_attn): Linear(in_features=4096, out_features=12288, bias=True)
          (c_proj): Linear(in_features=4096, out_features=4096, bias=False)
          (attn_dropout): Dropout(p=0.0, inplace=False)
        )
        (ln_2): RMSNorm()
        (mlp): QWenMLP(
          (w1): Linear(in_features=4096, out_features=11008, bias=False)
          (w2): Linear(in_features=4096, out_features=11008, bias=False)
          (c_proj): Linear(in_features=11008, out_features=4096, bias=False)
        )
      )
    )
    (ln_f): RMSNorm()
  )
  (lm_head): Linear(in_features=4096, out_features=151936, bias=False)
)
=======================Qwen=====>
torch.Size([151936, 4096])
Vocab of the base model: 151936
Vocab of the tokenizer: 151851
transformer.wte.weight 622329856 True
transformer.h.0.ln_1.weight 4096 True
transformer.h.0.attn.c_attn.weight 50331648 True
transformer.h.0.attn.c_attn.bias 12288 True
transformer.h.0.attn.c_proj.weight 16777216 True
transformer.h.0.ln_2.weight 4096 True
…
transformer.h.30.mlp.w2.weight 45088768 True
transformer.h.30.mlp.c_proj.weight 45088768 True
transformer.h.31.ln_1.weight 4096 True
transformer.h.31.attn.c_attn.weight 50331648 True
transformer.h.31.attn.c_attn.bias 12288 True
transformer.h.31.attn.c_proj.weight 16777216 True
transformer.h.31.ln_2.weight 4096 True
transformer.h.31.mlp.w1.weight 45088768 True
transformer.h.31.mlp.w2.weight 45088768 True
transformer.h.31.mlp.c_proj.weight 45088768 True
transformer.ln_f.weight 4096 True
lm_head.weight 622329856 True
torch.Size([32000, 4096])
=======================LLama=>
LlamaForCausalLM(
  (model): LlamaModel(
    (embed_tokens): Embedding(32000, 4096)
    (layers): ModuleList(
      (0-31): 32 x LlamaDecoderLayer(
        (self_attn): LlamaAttention(
          (q_proj): Linear(in_features=4096, out_features=4096, bias=False)
          (k_proj): Linear(in_features=4096, out_features=4096, bias=False)
          (v_proj): Linear(in_features=4096, out_features=4096, bias=False)
          (o_proj): Linear(in_features=4096, out_features=4096, bias=False)
          (rotary_emb): LlamaRotaryEmbedding()
        )
        (mlp): LlamaMLP(
          (gate_proj): Linear(in_features=4096, out_features=11008, bias=False)
          (up_proj): Linear(in_features=4096, out_features=11008, bias=False)
          (down_proj): Linear(in_features=11008, out_features=4096, bias=False)
          (act_fn): SiLU()
        )
        (input_layernorm): LlamaRMSNorm()
        (post_attention_layernorm): LlamaRMSNorm()
      )
    )
    (norm): LlamaRMSNorm()
  )
  (lm_head): Linear(in_features=4096, out_features=32000, bias=False)
)
Vocab of the base model: 32000
Vocab of the tokenizer: 32000
=======================LLama================================
model.embed_tokens.weight 131072000 True
model.layers.0.self_attn.q_proj.weight 16777216 True
model.layers.0.self_attn.k_proj.weight 16777216 True
model.layers.0.self_attn.v_proj.weight 16777216 True
model.layers.0.self_attn.o_proj.weight 16777216 True
…
model.layers.31.self_attn.k_proj.weight 16777216 True
model.layers.31.self_attn.v_proj.weight 16777216 True
model.layers.31.self_attn.o_proj.weight 16777216 True
model.layers.31.mlp.gate_proj.weight 45088768 True
model.layers.31.mlp.up_proj.weight 45088768 True
model.layers.31.mlp.down_proj.weight 45088768 True
model.layers.31.input_layernorm.weight 4096 True
model.layers.31.post_attention_layernorm.weight 4096 True
model.norm.weight 4096 True
lm_head.weight 131072000 True
torch.Size([64000, 7168])
=======================YI============>
LlamaForCausalLM(
  (model): LlamaModel(
    (embed_tokens): Embedding(64000, 7168)
    (layers): ModuleList(
      (0-59): 60 x LlamaDecoderLayer(
        (self_attn): LlamaAttention(
          (q_proj): Linear(in_features=7168, out_features=7168, bias=False)
          (k_proj): Linear(in_features=7168, out_features=1024, bias=False)
          (v_proj): Linear(in_features=7168, out_features=1024, bias=False)
          (o_proj): Linear(in_features=7168, out_features=7168, bias=False)
          (rotary_emb): LlamaRotaryEmbedding()
        )
        (mlp): LlamaMLP(
          (gate_proj): Linear(in_features=7168, out_features=20480, bias=False)
          (up_proj): Linear(in_features=7168, out_features=20480, bias=False)
          (down_proj): Linear(in_features=20480, out_features=7168, bias=False)
          (act_fn): SiLU()
        )
        (input_layernorm): LlamaRMSNorm()
        (post_attention_layernorm): LlamaRMSNorm()
      )
    )
    (norm): LlamaRMSNorm()
  )
  (lm_head): Linear(in_features=7168, out_features=64000, bias=False)
)
Vocab of the base model: 64000
Vocab of the tokenizer: 64002
=======================YI================================
model.embed_tokens.weight 458752000 True
model.layers.0.self_attn.q_proj.weight 51380224 True
model.layers.0.self_attn.k_proj.weight 7340032 True
model.layers.0.self_attn.v_proj.weight 7340032 True
model.layers.0.self_attn.o_proj.weight 51380224 True
…
